estimated_capabilities/progression_model_results_2M/bias_est.npy (npy, 528 bytes, 1 tensors)

array f8 [50]
-0.13254128815228827 -0.660509841759991 -0.6052777956488963 -0.42024771725257987 -0.10119072406553133 -0.42478574420859083 -0.1177357324788346 0.9730209572926397
0.06640952121710729 -0.46750874292744365 -1.3666789373710702 -0.3270343486866349 -0.4502063969670921 -0.8403808679266792 -0.7191817317431584 -0.6937931583689833
0.3170484272788204 1.9469158347823308 1.2843336594170784 -0.4621174763652322 -0.3046601885249713 -0.266906351112969 0.45417675139919156 0.14991887568429632
-0.1020623011566629 0.3368824557665755 0.6377327759128847 0.0688565086529074 0.6404739899743562 0.7818305030374381 0.4788925583656437 0.48327186161280766
-0.0025242010701889738 0.2312479954509301 0.17141773393470727 -0.14311102514430268 1.2781816843466585 -0.02271417778407101 0.42369467580285464 0.6122949366264013
0.4193628743582467 -0.29880704617305637 -0.19692370101269546 -0.8765087548665871 -0.5550298957552822 -0.5306469216907256 -0.18159060564646598 -0.41727839498959196
-0.45873344451069276 -0.606374784428152
00000000: d8ec fde8 1cf7 c0bf 1173 2189 e522 e5bf
00000010: c9d2 298a 6f5e e3bf 1162 74ae 56e5 dabf
00000020: d91f 85a2 a2e7 b9bf f2b4 cb8b b02f dbbf
00000030: ff33 91d0 ed23 bebf bf9f bcd8 fc22 ef3f
00000040: 173f c5e1 3600 b13f 91ea 5dca a9eb ddbf
00000050: a140 c2bb eadd f5bf c7c6 117a 21ee d4bf
00000060: 261d db7d 2ed0 dcbf ddbb fd6a 66e4 eabf
00000070: d8f5 3668 8903 e7bf 4144 acb5 8d33 e6bf
00000080: 054a 9a7c 854a d43f 3f46 e737 9126 ff3f
00000090: dc92 8573 a18c f43f b784 f92d 5593 ddbf
000000a0: 97e8 8672 8d7f d3bf 48fe 4760 fe14 d1bf
000000b0: 363c 775d 3b11 dd3f 85fe 0eae 8a30 c33f
000000c0: a653 9f45 c120 babf 5c45 876e 7b8f d53f
000000d0: a742 0491 4e68 e43f 32ee c784 94a0 b13f
000000e0: 9b1c 1c4f c37e e43f ebf3 3167 c104 e93f
000000f0: 029b 1ef9 2ca6 de3f 1a0f 2d1a eded de3f
00000100: 8a8e 7021 a2ad 64bf 3818 ddc8 8899 cd3f
00000110: 941c 9a2c 04f1 c53f 5a8d 584a 7651 c2bf
00000120: 6cd7 49a3 6e73 f43f 5ad4 f3aa 6242 97bf
00000130: 5d01 0446 d01d db3f 1d23 0a8d eb97 e33f
00000140: 509d a161 d7d6 da3f 3d2b c896 a71f d3bf
00000150: 5212 d4bb cb34 c9bf d6e8 9916 5c0c ecbf
00000160: 7c47 520e cec2 e1bf c94f cc40 0ffb e0bf
00000170: 7796 4168 5c3e c7bf d4b0 f370 b0b4 dabf
00000180: 904f 7085 e35b ddbf 649d 8717 6c67 e3bf
