estimated_capabilities/progression_model_results_2M/bias_est.npy (npy, 528 bytes, 1 tensors)

array f8 [50]
0	0xc00550f239149b7a	-2.664524503651987
1	0xc00314459920415c	-2.3848983729332485
2	0xc006dbaa8cc099db	-2.8572588917042885
3	0xbfe2aaa449101d87	-0.5833302905092957
4	0xbfd4fd70e93f2a88	-0.32796881464006633
5	0xbfe668b16cbda65a	-0.700279915222562
6	0xbfa8791f8aacd57c	-0.04779909675418545
7	0x3fea72ceeca60379	0.8265146848717527
8	0x3fe14795165d690a	0.539988082581915
9	0xbfddd7ffe1c28b58	-0.46630856558674827
10	0xbff43eb5bd85fe10	-1.2653100398309824
11	0xbfdbcd50d4b8b5bc	-0.43440647862993464
12	0xbfddc00486b4d04c	-0.46484482912933767
13	0xbfef2518779ddd52	-0.9732782684576853
14	0xbfe92237e48aff88	-0.78542704236314
15	0xbfe46d41637fe01e	-0.6383368438100694
16	0x3fe01cb06c1f180b	0.5035020934817579
17	0x4000e1d528c8a4d0	2.110269850371516
18	0x3ffd18a5ae98d5b7	1.8185173816867584
19	0xbfd63992d926b3f5	-0.34726401525659806
20	0xbfd2ba53c9582bf4	-0.2926225153211697
21	0xbfcc97e93597a346	-0.2233859550172161
22	0x3fd325bae450eebf	0.299177859272941
23	0x3fa9d3fa7b64d70c	0.050445392191631994
24	0xbfb6fd0341561482	-0.08979816765902807
25	0x3fd30e7e2b5209e9	0.2977595732737926
26	0x3fe165b884e296ef	0.5436670871174253
27	0x3fb512daa91b0c41	0.0823189413886647
28	0x3fde9a17431fa67e	0.4781549602035752
29	0x3fe184af831a1e4b	0.547446971949236
30	0xbf8f710c3732aa14	-0.015352340158945522
31	0x3fed487552e80822	0.9150950068726653
32	0x3fdf4957708670fa	0.48885141361985485
33	0x3fe5533268ef27f9	0.6664058732505956
34	0x3fd6811fc044d643	0.3516311051965639
35	0xbfd07a2f57b935ac	-0.25745757643457057
36	0x3ff2f45bf9bf88f8	1.1846580272472789
37	0xbfc65f147ac7e788	-0.1747766112819671
38	0x3fd6707b17920508	0.3506152849368651
39	0x3fdcd7704fd962eb	0.4506493358399399
40	0x3fd6ea2b6366f675	0.35804257113691246
41	0xbfd22a1d7aec4224	-0.28382050518215096
42	0xbfc4fe46f3e85ab3	-0.16400992307236137
43	0xbfeed5cdc20f5d35	-0.9635990896448791
44	0xbfe3cd18c3887da8	-0.6187862223632026
45	0xbfe1cecbe36a8a93	-0.5564937059137541
46	0xbfc4a43134e888bf	-0.1612607487050521
47	0xbfcaa4b7173f1960	-0.20815170893747403
48	0xbfdbffb30f8c4abe	-0.437481656249627
49	0xbfe2b07cc3444459	-0.584043866520129
