estimated_capabilities/progression_model_results_2M/bias_est.npy (npy, 528 bytes, 1 tensors)

array f8 [50]
0	0xbfd3a294bb737543	-0.30679815583956244
1	0xbfcecadd2ee20c0d	-0.24056591786583717
2	0x3fa31d855514cd39	0.037334601055045664
3	0x3f4fc62b2c869e8d	0.0009696684656334706
4	0x3fc0ed3250ecdc9b	0.13223866416385452
5	0xbfc4c4f02ddbf7b5	-0.16226007689686886
6	0x3fcdec58866983bb	0.23377520144552286
7	0x3fd36f6ea407fc03	0.30367628115340056
8	0x3fcc3fb3bc8e0a1b	0.2206940336873949
9	0xbfb07da2dd5b668f	-0.06441705612396674
10	0xbfcc5d803e954f65	-0.22160342269728087
11	0x3fb8fdf43ce63b07	0.0976250313453698
12	0xbfb919d367443656	-0.09805032035020508
13	0xbfb516a7e4f923c3	-0.08237695064703048
14	0xbfb544705b0db5e1	-0.08307554457652301
15	0xbfa49e00c772edb4	-0.04026796755484999
16	0x3fb58b84f8273c38	0.08416014727048171
17	0x3fd5cec8eb534f54	0.3407461450672049
18	0x3fb4f4de9b9c6f65	0.08186141299341683
19	0xbfb20d28514c736e	-0.07051326737241734
20	0x3f999c7869f8b8f9	0.025010949581138118
21	0x3f8d9b83b5e474fa	0.014456776607909994
22	0x3fc233e2b8eaca08	0.14220842389256938
23	0x3fb7e81cf58211eb	0.09338551515435937
24	0xbfad1058d3a63e34	-0.05676534255610158
25	0x3fb473093ec28889	0.07988031179641743
26	0x3fccb96697a1d523	0.22440798190988528
27	0x3f9bcf2700e16a6a	0.027157411030524527
28	0x3fc64693cbcba35e	0.17402884913397093
29	0x3fb88558652ab780	0.09578468770879844
30	0x3fbaff37c59f1a16	0.10545681547873928
31	0x3fd46fec67560517	0.31933126536758166
32	0x3fb1862983fc8a0b	0.0684534022553082
33	0x3fc192e0026f3fdb	0.1372947704207935
34	0x3fc218f5b8da14d0	0.14138671422930438
35	0xbf8e360a9806d864	-0.014751513256538291
36	0x3fd4e64246630bc2	0.3265538871166279
37	0xbf992f9035be6698	-0.024595502166994437
38	0x3fc412255ba260a2	0.15680376982050342
39	0x3fd1b8cea7f57c37	0.2769047394012349
40	0x3fbe1576b8eb528a	0.11751501097325892
41	0xbf9ed85badc7ee49	-0.03012221573042798
42	0xbf921eea6fac9444	-0.01769605928997843
43	0xbfc61c3c5b92b93a	-0.17273668738693876
44	0xbfc21eaf0252b298	-0.14156139005117008
45	0xbfc419abcd9bc58e	-0.15703341998554915
46	0x3f85938f8e66d966	0.010535356076485324
47	0xbfa46a43b2523370	-0.039873233335220415
48	0xbf9879b0c4f1ca05	-0.023901712437188766
49	0xbfb5daffd93cbe2b	-0.08537291577953769
