estimated_capabilities/camera_with_frame_stacking_400k/ability_bias_rl_single.npz (npz, 552 bytes, 1 tensors)

arr_0 f8 [36]
0	0xbff282978d07c79e	-1.1568828114509198
1	0x3fb2ca99a838dda8	0.07340393406854295
2	0xbff7ba5607920559	-1.4829922004431266
3	0xbff8473bfd77ed6a	-1.5173911954032868
4	0xbfe19573e3d2d2b4	-0.5494937371900819
5	0xbfff08b45f095e75	-1.939625140415868
6	0xbff7eb83e9ddefa9	-1.4949988494326851
7	0xbfe5026fcaf3f6db	-0.6565474475789544
8	0xbfec10d7a1b05a45	-0.8770559461580169
9	0x3faa0892c4856647	0.05084665917338476
10	0xbfe01bc15e506856	-0.5033881036827192
11	0xbfce6f6058a7bac5	-0.23777393654696347
12	0xbff1768962695e96	-1.0914396137431246
13	0x3fb191647ddf26f8	0.06862476418532626
14	0x3fa9556ad8c98f1b	0.049479807818697284
15	0x3fc552525242fe99	0.16657475487408105
16	0x3fe5362d533b689f	0.6628634095789215
17	0x3fed2373816fdb87	0.9105775383057882
18	0x3fc60059a51d62ae	0.17188568651433428
19	0x3fb27fd7315ebe33	0.07226319270443397
20	0xbf6e697ccc828273	-0.003712409732614491
21	0xbfc5ef718992b398	-0.17136973588403914
22	0x3fe24979e3037468	0.5714692529542278
23	0x3fa3cda71a98fab4	0.0386783809631103
24	0xbfdc2544019e36e6	-0.4397745147515323
25	0x3fe521f71283e568	0.6603961335778594
26	0x3fd3fcb24f731eba	0.3122983718753677
27	0x3fd83cb7a8ea296d	0.37870589728904386
28	0x3fdde8825c4f4d4b	0.4673162366354588
29	0x3fe2586e2d08cf4e	0.5732947234705337
30	0x3ff43b924e927314	1.2645438260289596
31	0x3fbdabb7c93f0bd8	0.11590145743598101
32	0x3fad5aa196a69ee9	0.057332086219785534
33	0x3fa6ff5ac5561f7a	0.04491695078746623
34	0x3fd2ab56a04a7ccc	0.2917076649991486
35	0x3fac1b33969c6d1f	0.05489503110421822
