estimated_capabilities/camera_with_frame_stacking_400k/bias_est.npy (npy, 416 bytes, 1 tensors)

array f8 [36]
0	0x3ff1671084f7b9a2	1.087662238507257
1	0x3ff7f5bad626e532	1.4974926343259765
2	0x4004e426cc18b24b	2.61140212488525
3	0x4010b8fb8c860430	4.180647082977018
4	0x4009e62ab3e5e3cc	3.2373861364871797
5	0x400bd6aad8a195f4	3.4798180507957515
6	0x4009b9f29d4c1c27	3.215794781575386
7	0x3ff923899213e62e	1.5711761194383018
8	0x3ff4f060f4e315b1	1.3086862150097256
9	0x3ff5d9125626b656	1.3654960027009984
10	0x3fd479956cbdd22e	0.319920879547939
11	0x3fda623a65ff8f7b	0.4122453685833915
12	0x3ff8f92d76d8ff82	1.5608343737112311
13	0x40084bf93d1b28c6	3.0370964788354256
14	0x4000978150eaaf0e	2.0739771196002783
15	0x3ff05e61a7799a7b	1.0230423490517342
16	0xbfd088d7f2a76683	-0.25835226723356913
17	0x3fd89f5a92ebf1c2	0.38472618434732564
18	0x3fe47569be0a85ec	0.6393326484432555
19	0x3fd1c8a4607983a8	0.2778712217460062
20	0x3fd00dc9af82b794	0.250841542622646
21	0x3fd8fbcbd239198b	0.39036841897577607
22	0xbfe512485200185c	-0.6584817506379852
23	0xbff46578eb1246eb	-1.2747735197521546
24	0x3fda854342ef7c3b	0.4143837121645821
25	0xc000e7f0d9e7ea3b	-2.1132523559474783
26	0xbff632aab25123bf	-1.3873698201661993
27	0xbff1b80975a10422	-1.1074308962709059
28	0xbff7c9c05b7d5889	-1.4867557119191892
29	0xbff651cddc4d5bac	-1.3949717145494374
30	0xbffdc744d1dcfaf9	-1.8611496160298755
31	0xbff605a065fe26d0	-1.3763736709683378
32	0xc0020b71a03ea6aa	-2.2555878180617883
33	0xc000dc89ab6ce1a6	-2.1076844589808443
34	0xbfee7ca152d93781	-0.9527136438498333
35	0xbfdf84ad8fcc5207	-0.4924730209616261
