estimated_capabilities/camera_with_frame_stacking_400k/bias_est.npy (npy, 416 bytes, 1 tensors)

array f8 [36]
00000000: 9185 2f37 16a5 ed3f 7f8e a979 cbb1 f33f
00000010: d3d6 b9e7 5760 0240 0404 a713 b3c4 1040
00000020: 7d55 81f0 845f 0740 34a2 18ec 663f 0940
00000030: 8859 ff55 2e6d 0740 0211 5dc2 d99c f93f
00000040: f662 c4f3 7b80 f63f 1426 7a88 e6ef f53f
00000050: 6d3d 1d94 632c d33f aaa9 261a 67d1 cf3f
00000060: 1a8f 5152 c565 f43f 8fe2 d415 7182 0340
00000070: b13e c71b 8e2a f83f 638b 77f7 3ec4 ed3f
00000080: 59e8 deb2 8435 e23f fdcc d1ad 97e2 e63f
00000090: e30c 0dda 6f34 e93f 0ad2 33c2 8bc0 d73f
000000a0: c454 5ae2 692e d33f 15b0 70fb 49a7 a73f
000000b0: 037e 9977 a931 e8bf 5d57 be34 bd2a cebf
000000c0: 2d0b ebcf 8a2e e73f f47b 6daa 5a2f d9bf
000000d0: a689 0e1f e48c f2bf 9343 b413 e31c e7bf
000000e0: db54 2965 730c efbf fcf4 83c7 0bdc eebf
000000f0: a86f 8dd9 faae f5bf 8961 c19e f883 f1bf
00000100: e3ff f123 0067 00c0 9394 a88d 265a fdbf
00000110: 1b56 c67f 4cdb eebf 48b4 77a0 a602 e6bf
0.9264021947712299 1.2309069397387302 2.297042665823804 4.192089373654202 2.9216402806729875 3.1559580273645 2.9283110350181154 1.600793608887273
1.4063682100442612 1.3710694628847522 0.2995842882564464 0.24857796456246933 1.274846383625976 2.438692255553469 1.5103894314851625 0.930205806096961
0.5690330022400857 0.7151602168000007 0.7876509913261568 0.37112707104759635 0.2997078619458302 0.04619818872774332 -0.7560622535638121 -0.23567929339759078
0.7244314251805456 -0.393515268739008 -1.159397240939691 -0.7222762474867629 -0.9702698684510794 -0.9643610855852383 -1.3552196977752633 -1.0947195245153998
-2.050293236563435 -1.8345094235931227 -0.9642698760605443 -0.6878235944874485
