estimated_capabilities/raycasts_with_frame_stacking_500k/_estimated_ability_bias_rl_FULL_high_hdi.npy (npy, 448 bytes, 1 tensors)

array f8 [40]
3.5639398435764607 1.8694901905649672 0.712578784761482 -0.2816757006151195 -1.0625674164737815 -0.933887117954345 0.008853990259151456 0.172185340280457
0.6428502044898575 1.1802355969566778 2.0903963962426073 3.7388907380274756 2.492764127192481 0.4958268218144968 0.20971290136444942 0.849583431061969
1.0166867586141863 1.6461434881339387 1.578994000804303 0.4127708747491697 0.9206282341656629 2.068039389661736 -0.6161632400766115 -1.1686943732442554
-1.7643800116585302 -1.2377727122744504 0.016632176876695708 0.8142134856102925 0.23211429440010709 0.13843124291935702 0.20060890126283137 -0.24603064863341548
0.8014367167037201 0.7052523926628 0.6166222227096391 0.8926480779641031 -0.7181905801635848 -0.30765361072738723 -0.45463208274797406 -0.5441257554437164
00000000: fa93 88e4 f282 0c40 a0b5 ca8b 6ee9 fd3f
00000010: b6f7 0b06 72cd e63f 9e11 8e84 f906 d2bf
00000020: 39cd f8b0 4600 f1bf 9da0 b83c 67e2 edbf
00000030: 4038 d174 0a22 823f 0277 ad52 2b0a c63f
00000040: e358 9097 3a92 e43f 4110 a8b8 3ee2 f23f
00000050: 594e ecbe 21b9 0040 9929 198c 3fe9 0d40
00000060: 3378 9751 2ef1 0340 8410 0b6c a0bb df3f
00000070: 406d 7452 dfd7 ca3f de4e 7497 c92f eb3f
00000080: 0763 a855 5944 f03f 27f0 e08d 9a56 fa3f
00000090: 0c8e a036 8f43 f93f e97e f287 d66a da3f
000000a0: 0a81 b057 c975 ed3f e37e 4b3c 588b 0040
000000b0: d20b a4f8 9bb7 e3bf 18a7 01df f8b2 f2bf
000000c0: bca1 fc88 e63a fcbf 8799 71c2 eacd f3bf
000000d0: be9d fc7e 0608 913f 6411 9570 090e ea3f
000000e0: 3ff8 b0d3 ebb5 cd3f 97a8 8a6e 1db8 c13f
000000f0: e0ec 1a6f 8dad c93f 1bdb d8aa ee7d cfbf
00000100: 87cb 019d 5ea5 e93f 0233 3d77 6d91 e63f
00000110: 93ca 1087 5ebb e33f b82d b6b3 9290 ec3f
00000120: b221 c3cf 6afb e6bf 2382 24c5 98b0 d3bf
00000130: c25a c729 b118 ddbf 8658 916a 7a69 e1bf
