estimated_capabilities/raycasts_with_frame_stacking_500k/bias_est.npy (npy, 448 bytes, 1 tensors)

array f8 [40]
00000000: fde1 d4c3 86c3 cdbf b2df 9689 cb59 dabf
00000010: ddfa c1d3 4d50 cebf 1808 9b0b cde3 e2bf
00000020: d260 8b2e 37ac f2bf 99eb d1e2 0a56 01c0
00000030: 1610 3a0e dec8 fcbf e6a0 13d5 4342 00c0
00000040: 1cf8 0776 ced8 f8bf e02c 69d4 a764 f0bf
00000050: f50a 9360 bbc4 eebf b0d3 4f7a 66ff f93f
00000060: 0edd 1cad 3d3a c33f 0da0 c2bc 8236 9cbf
00000070: ace0 da29 9d60 f63f 709d 821b 875f ed3f
00000080: 52bf 0224 8484 d43f fcff a937 7c61 f13f
00000090: e97e 67fa c15d ec3f 3a6d c1b3 2e97 ed3f
000000a0: d0ae f6f5 fea1 dd3f 86b4 bdfc 0980 fc3f
000000b0: 9491 0476 ef41 f13f 6be7 5958 996f c5bf
000000c0: 5b55 ec54 af71 01c0 a2cb 63b5 4711 11c0
000000d0: 40de 35c0 786c c3bf 7981 600d f7ed 8cbf
000000e0: 600e 46c0 e56a e0bf 3833 7f72 d3c6 e3bf
000000f0: fdc8 8415 713a debf bae0 cca6 950b eebf
00000100: 7d22 1f77 4c9e b13f 0f92 f5bc 4094 d03f
00000110: ea9f 65e2 b8e4 d73f f249 6f72 462c b3bf
00000120: 7126 e2ee 7904 efbf 1a98 5021 8a66 adbf
00000130: 6e70 2e4c 699b f0bf a48a 1c67 db84 cfbf
-0.23252949297035733 -0.41173065601787606 -0.23682568397267448 -0.5903077341720318 -1.1670448129789759 -2.167012950927028 -1.7990398936972318 -2.0323559424033304
-1.5529312716094017 -1.024574117402885 -0.9615151296823955 1.6248535898023242 0.1502148719098177 -0.02755169179059185 1.3985873827896667 0.9179111039456256
0.3205881454150489 1.0863001036050255 0.8864450350483511 0.9247048865176233 0.4630124475467996 1.7812595246025764 1.0785975084373591 -0.16746823133490393
-2.18051019998772 -4.266875108924895 -0.15174779305719888 -0.014125757308705232 -0.5130490069718228 -0.6180207477824302 -0.47231700040278196 -0.9389141328638495
0.06882169636004139 0.25904863789608695 0.3733350954921649 -0.07489433568779427 -0.9692964235011471 -0.0574229398410326 -1.0379422164760643 -0.24624197516194102
