estimated_capabilities/no_navigation/working_caps_predictive/bias_est.npy (npy, 656 bytes, 1 tensors)

array f8 [66]
00000000: 8d10 fd59 216d e5bf 3751 501c 76f4 d43f
00000010: 6e75 7aa2 e6c9 e33f ebaf 34db 197d c63f
00000020: 8671 d044 56ee dbbf c0c8 4790 8a76 b23f
00000030: 8992 fe63 6c19 d8bf 1f1e d60b a0bc c5bf
00000040: 8156 69b6 d800 ef3f 90fe f357 fc44 f13f
00000050: 1fe5 94a3 987f d93f 5f83 0074 26dd fb3f
00000060: 4a13 828d 4dd4 c83f 14d5 683c a15e c33f
00000070: ec36 c32a 4c09 f43f 7ab0 c65a 146f ef3f
00000080: 235e e352 6e9a e23f 4ab6 c6d3 248d cdbf
00000090: 6d12 0fa8 aafa f1bf ccb2 b13a dde0 f4bf
000000a0: eccd 0518 ea0e fabf c598 c682 10d4 e5bf
000000b0: bfe8 501c dc1a cabf 334f c1cc 76da b93f
000000c0: fe7c 0554 910a f1bf 9838 ade1 5f29 d7bf
000000d0: be5c 5ae0 88f5 c2bf 9283 7933 d0ae b33f
000000e0: 980f 932e 3035 9d3f 56b9 2fd8 8fa6 db3f
000000f0: 0276 16e1 11df e23f 7c27 68e5 b0e2 d1bf
00000100: 6ecf c79a 94db e1bf 2dcf 6b0d 3993 e6bf
00000110: 0edd 1e5d 1d48 d2bf e779 66ce 9e1e d23f
00000120: 3e62 11fc c5c6 d23f 19e3 b4f3 6d6a cc3f
00000130: 182a f630 1410 e63f db0e bde0 6015 c73f
00000140: b219 7596 a03c e83f 3692 be9c 7bac debf
00000150: 43c3 0305 5b89 a8bf 0762 2877 4a5b e6bf
00000160: b150 df6b ab17 dbbf 23fb 4a25 a3a3 d53f
00000170: eb1a 4387 1d19 ea3f 52d9 c813 9ce9 d53f
00000180: 5646 f844 829b a03f 1646 1774 e710 b8bf
00000190: 6bb0 9cbf c8e4 c8bf a698 472e 8d28 e13f
000001a0: 5d4f d0d5 d4be f5bf 97e2 1fa4 6097 d8bf
000001b0: 6ed0 b64e d267 cebf 3bba abd6 6ecf d1bf
000001c0: e90b 0e70 8927 dc3f 7921 1b00 f06f cf3f
000001d0: 7df6 93c1 97ba b03f 3a0c 7c69 129f dbbf
000001e0: fe70 5713 99c3 eb3f 4370 a107 8a8c ed3f
000001f0: 9cb4 3406 2075 d63f 3a33 8129 106d e73f
00000200: 0eea 3e8e 7bb3 e9bf e94c a86d 5ba5 e0bf
-0.6695715673054267 0.3274207378865585 0.6183961079984053 0.1756927795735231 -0.43642193527355067 0.07212129614325402 -0.37655172123985686 -0.16981888368558004
0.9688533365940232 1.079342216078576 0.39841285681502997 1.7414917498901656 0.1939789715726426 0.15132537316973382 1.2522699041759848 0.9823095105143829
0.5813514346036225 -0.2308698686660356 -1.1236979069518853 -1.3048984806766155 -1.628641218031471 -0.6821367792333822 -0.20394469626064013 0.10098974703697365
-1.0650800020301285 -0.3619003013490185 -0.14811812357650028 0.0768861890478674 0.028523209421805612 0.4320411311336064 0.5897302051777731 -0.27946112063420236
-0.5580542586380781 -0.7054715406543203 -0.2856515321140741 0.2831189170482546 0.29338216415411356 0.22199797057853557 0.6894627529412132 0.18033991788444478
0.7574007929441022 -0.4792775183398449 -0.047922939645906236 -0.6986439063358042 -0.4233196786347078 0.3381126274288581 0.8155658380354373 0.34238340313040283
0.03243643848339832 -0.09400793632746515 -0.1944819388967319 0.536200132741915 -1.3590896942232213 -0.38423934963024337 -0.23754338115179813 -0.278285703315223
0.43991313879831623 0.24560356145071774 0.06534718013787173 -0.4315839796183273 0.8676267030491827 0.9234056614909679 0.3508987484554582 0.7320633707655368
-0.8031595018613318 -0.5201851979967645
