estimated_capabilities/progression_model_results/bias_est.npy (npy, 768 bytes, 1 tensors)

array f8 [80]
-5.977904826758533 -6.106072367058711 -5.869628013674654 -5.805649365623803 -5.654127323180469 -5.498995446625057 -5.443793236447828 -5.379034066332264
-5.279347289969468 -5.100416510160984 -4.92269429677719 -4.901358524868845 -4.722432922451576 -4.727157757236067 -4.583095108411281 -4.360862348797478
-3.9215333487845125 -3.821252825333762 -3.757149860738417 -3.5920772562875944 -3.4711210628618208 -3.361732803156376 -3.3580207623021168 -3.4687973472099527
-3.6306068972371865 -3.6098232536390524 -3.4730920019575326 -3.2588006364237176 -3.0755552174218654 -3.0553527485022336 -3.033992812526783 -2.810041153507999
-2.7264546454579928 -2.715123576935174 -2.114679295242283 -1.9595020743901788 -1.6012860217590894 -1.4303913386717193 -1.376766188002956 -1.3343530761617786
-1.1928779854875737 -1.2674483298227248 -1.0596894298139496 -0.8982566253814914 -0.6152248012744833 -0.46918312035362214 -0.15296133261920658 0.05501838801517538
0.27948659246114854 0.553354354718807 0.8143088826290746 0.7985020467750186 0.7769362345787757 0.698399853693684 0.8444472197595504 0.8057943475234685
0.7443461666716717 0.7965164901923707 0.767267555207681 1.0627754211332985 1.2186221476044528 1.2082119075605964 0.8768554571003331 1.172008127729962
1.0224790844670673 0.8511261469957708 0.9901670352638302 0.7800847491701924 0.6353389434162743 0.39262184562248054 0.6592324741881238 0.5000814476949687
0.41606544917942584 0.2631700901383893 0.32896434408922387 0.4124200928557626 0.4363377962689984 0.08015145627078071 0.22692368343598904 0.3198015573408401
00000000: 211d 06e2 5fe9 17c0 1b1b 0e3c 9e6c 18c0
00000010: 1dac 19c4 7f7a 17c0 eb96 b525 fc38 17c0
00000020: a9eb 918d d39d 16c0 1d6e 90a9 f8fe 15c0
00000030: ecea f2bb 71c6 15c0 2dde 9b81 2184 15c0
00000040: 9394 4a37 0d1e 15c0 c17a ec95 d366 14c0
00000050: 7b74 13c6 d6b0 13c0 4621 a9ba fd9a 13c0
00000060: d2ee bd74 c5e3 12c0 4b72 090b 9ce8 12c0
00000070: 0b56 54e2 1655 12c0 8bc5 49e6 8571 11c0
00000080: 6c9f 59e0 4c5f 0fc0 e972 5400 ed91 0ec0
00000090: f356 1096 a40e 0ec0 5eaf 2300 93bc 0cc0
000000a0: 1496 ab1e dbc4 0bc0 8a93 fb2a d4e4 0ac0
000000b0: 3d03 4bfd 39dd 0ac0 16bf d5d2 18c0 0bc0
000000c0: 4120 02a1 7b0b 0dc0 a6c2 9503 ebe0 0cc0
000000d0: 1141 a375 e4c8 0bc0 a7fd 6c11 0612 0ac0
000000e0: e1f3 9eb1 bc9a 08c0 887c 24c8 5c71 08c0
000000f0: 10d0 1006 9e45 08c0 08d9 35db f67a 06c0
00000100: a327 0274 c7cf 05c0 e947 bcb5 92b8 05c0
00000110: 60c0 74fa dcea 00c0 1b33 dfd8 1e5a ffbf
00000120: abf4 6f17 de9e f9bf 243a 4107 e2e2 f6bf
00000130: 6b61 7bfb 3b07 f6bf cde8 769c 8259 f5bf
00000140: 9199 fc39 0716 f3bf b555 5fe6 7747 f4bf
00000150: 1d7c 4fe7 7cf4 f0bf f8b8 adad 84be ecbf
00000160: 252f 25ec ebaf e3bf 2d42 70a3 1807 debf
00000170: 0a77 93a8 3c94 c3bf a75a 68c2 5e2b ac3f
00000180: 99a1 92bb 1be3 d13f 09ba 1331 14b5 e13f
00000190: 637e 7780 d10e ea3f 3002 162a 548d e93f
000001a0: b5fb d260 a9dc e83f 68a8 64a6 4a59 e63f
000001b0: b517 022d b605 eb3f 5147 3d3a 11c9 e93f
000001c0: dc3f 580d afd1 e73f e03a 8326 107d e93f
000001d0: 7fc3 1cb0 748d e83f 8d29 cccc 2001 f13f
000001e0: 4f47 e2ef 797f f33f c2c4 5902 d654 f33f
000001f0: fc14 f22c 330f ec3f 2af1 3398 8bc0 f23f
00000200: ca14 4a07 135c f03f 1fc1 c3e6 6c3c eb3f
00000210: 3d22 41c7 72af ef3f 3b6b b94a 74f6 e83f
00000220: 9323 fb55 b254 e43f 9f32 a960 b720 d93f
00000230: 492c a3b3 6e18 e53f 8ef5 e5ce aa00 e03f
00000240: e127 4efa d0a0 da3f 1881 9b5c c7d7 d03f
00000250: a173 da76 c00d d53f 97d7 c13e 1765 da3f
00000260: d2fa 3e5d f5ec db3f 2ae7 684b ce84 b43f
00000270: a5d0 85d3 d50b cd3f 1f48 7ff3 a077 d43f
