estimated_capabilities/no_navigation/working_caps_predictive_10_harder_spaced_out_curriculum_precise_N_train100/bias_est.npy (npy, 448 bytes, 1 tensors)

array f8 [40]
000000 80 48 27 a9 22 a5 e2 3f f8 97 02 c7 59 7b cc 3f
       0.582658129098732 0.22251436440745898
000010 27 28 6d 26 0d 38 9d bf f4 4e 73 58 bc 79 dc 3f
       -0.028534131498681028 0.4449301589749972
000020 72 d5 fa 20 b7 45 ce 3f ef 25 b1 83 a4 54 c8 3f
       0.23650254354803796 0.19008308820984562
000030 8d 84 fa 28 6a 89 e5 3f eb d8 60 02 68 8e e8 3f
       0.6730242538798322 0.7673835798694005
000040 9f ff 92 78 64 41 db 3f 49 b5 49 e4 4a a1 cd 3f
       0.4258662393076466 0.2314847578703996
000050 f4 76 ea c8 3c 76 d4 3f 0c d8 b6 ac ca 89 e3 3f
       0.3197166406697385 0.6105702756237874
000060 e3 40 4a 71 f8 33 af 3f b7 56 ad ae a5 b4 e0 bf
       0.06094337828574383 -0.5220516597425647
000070 2b 52 8f 87 6e b4 d8 bf 7e f3 40 01 bc 0b d6 bf
       -0.3860126804186474 -0.34446621057923454
000080 99 5b a5 11 74 1b ba bf 26 7a 1a e8 d0 e1 c8 bf
       -0.10198140555199443 -0.19439135869193186
000090 57 51 70 b6 7d c8 dc bf a9 b7 31 91 d1 86 d9 bf
       -0.4497370034817058 -0.3988536756431765
0000a0 63 0a 34 6a 29 57 e0 bf 52 9f a8 e3 be 87 e8 bf
       -0.5106398653300172 -0.7665705152948965
0000b0 7f 9c ec 3c 50 58 e6 bf a4 4c 4c f4 3f f3 e1 bf
       -0.6982804479529391 -0.5609435817190342
0000c0 0d 85 ca 95 f2 19 b9 bf 33 98 cf 4b ef 37 c9 bf
       -0.09805217892655467 -0.19701949311928643
0000d0 d4 a6 f8 6e a5 47 d2 3f ba 85 4a e3 91 64 de 3f
       0.2856229385093745 0.47488829800030496
0000e0 f6 2f 6a 8d 5d 0d e1 3f 72 d6 07 d3 1d 6e de 3f
       0.5328815233237936 0.4754709778638705
0000f0 13 c4 46 49 04 7d df 3f 9d 21 dd 76 df 9b e0 3f
       0.49200541644955925 0.5190274545248489
000100 2c dc 23 30 fa e6 d3 3f 93 34 38 f2 b7 6b d3 3f
       0.31097273541621706 0.3034496179032626
000110 fc 76 21 5f 10 0b ba 3f b0 b9 0d 83 49 4e c8 3f
       0.1017313225033511 0.1898891343984821
000120 1f 68 7e 0b 73 4e c6 3f 31 b2 a0 dc 22 f4 c9 3f
       0.174269085514255 0.20276294491613236
000130 55 a0 73 aa 2d 72 d6 3f ea 36 b8 4e 52 a0 d1 3f
       0.3507188953940433 0.2754102486368156
