estimated_capabilities/working_caps_predictive_3/bias_est.npy (npy, 656 bytes, 1 tensors)

array f8 [66]
00000000: 79fd 1755 fff1 0b40 098e 06ec 476f 03c0
00000010: 4e11 38f7 8077 20c0 bca4 6722 f56f 1dc0
00000020: 5633 99ec 84a0 1bc0 108d e6aa 8247 0fc0
00000030: 736b 9cf7 23f1 22c0 7eab 33d1 3304 be3f
00000040: d74a cc65 3254 e53f 5917 9b87 850e c7bf
00000050: 27e8 fb0f 34b2 f3bf 0feb 3389 2564 08c0
00000060: 55c8 e107 4823 14c0 2a57 a8e6 3e23 11c0
00000070: 6e3f 73d6 d56e 23c0 1f68 3930 dbbe 22c0
00000080: 9826 c08f 2095 17c0 1472 8c51 631d 12c0
00000090: 2dd3 c834 24c8 f9bf b9af 9bb9 7029 f73f
000000a0: b56f cdd3 aaab 16c0 6329 fc95 92fa 1fc0
000000b0: 288e 4821 bc23 25c0 4f59 0217 73fd 2cc0
000000c0: 8b31 eab2 8cd0 20c0 3313 2853 3616 0ec0
000000d0: f211 552d b44a 24c0 883d 0ca8 d2ca 03c0
000000e0: 88ea 4a1b dffd f9bf 02e3 3826 3622 13c0
000000f0: 9fa5 ceb4 a672 0140 88d2 6194 a939 1940
00000100: e148 19ac 134d 19c0 6833 baa6 8574 ff3f
00000110: 4ceb 4f9c 1c96 f5bf cac9 69f0 c68b 1040
00000120: 72ea 3a92 0971 1440 deee c093 4320 fb3f
00000130: e72c 3835 2c6a 1ac0 4131 1aac 9afd 16c0
00000140: ce23 7e8e 4f23 f43f 4c8d 455e 87ae 00c0
00000150: 24f6 4d2d c89b e1bf b18b dbb3 84d2 1240
00000160: a936 542c 30de 1840 a123 89ed 0c6a 0e40
00000170: 452c f626 4df9 e6bf 84fd d5c3 005d d93f
00000180: 3ca9 94cf 9ba6 02c0 40f4 24e1 2ccc d63f
00000190: 05be ee48 3114 9f3f 9f3f f170 9ea8 f43f
000001a0: b0e2 df61 eb37 e0bf de25 14b5 f52d ee3f
000001b0: 8537 892d 3152 d53f efb8 843d d558 0340
000001c0: bbd9 c9d6 8299 c63f e351 9a8b bb7e f1bf
000001d0: 4df4 fac7 5bef e03f 26cb e470 5f29 febf
000001e0: 7753 eb4f 5248 f13f b19f 8ea6 30d7 f4bf
000001f0: cde9 efa2 e154 bb3f 7e52 64ca 7eac c63f
00000200: 1e4f eeba e805 f13f cf5d c46f 8d18 0540
3.4931627891489225 -2.429336399030721 -8.233405805200757 -7.359333551002404 -6.906757065630549 -3.909917197380885 -9.470977533191876 0.11725162370173156
0.6665279377214927 -0.1801306640756433 -1.2310066818595347 -3.0488997191399743 -5.034454463153527 -4.284419635796249 -9.716475202148754 -9.37276602459684
-5.895632024863197 -4.5286991826983645 -1.6113626539128731 1.4476172685926783 -5.667643842138138 -7.99469980575154 -10.569794693095062 -14.495018691097952
-8.407323447311475 -3.7608458038906973 -10.145905892023595 -2.474034607766672 -1.62448034917057 -4.783409688207714 2.1809820294917723 6.30631095740376
-6.3252703562195345 1.96594777229185 -1.3491483789391223 4.136501079994966 5.110388073774276 1.6953769466044188 -6.603684264711069 -5.74766034040323
1.258620792972795 -2.0852191319442337 -0.5502663502554168 4.705584345126156 6.216980641021714 3.8017824704624705 -0.7179322968453411 0.3963014519176442
-2.331351873134876 0.356211871974498 0.03035046584744629 1.2911667262851336 -0.5068261062252386 0.9431103264516272 0.3331416077315839 2.4183754736069356
0.17655978667944602 -1.0934405759081691 0.529218569361214 -1.8851007852469563 1.0801566240163234 -1.3025366312158264 0.1067639372630886 0.17713913805404852
1.0639426519382549 2.6369885188866884
