estimated_capabilities/working_caps_predictive_3/bias_est.npy (npy, 656 bytes, 1 tensors)

array f8 [66]
00000000: c3dd d5b2 1d6b 31c0 e66d 094d 6329 26c0
00000010: aba5 3e85 5bd3 06c0 5597 4b9c 762d 06c0
00000020: 7c6b 2fa2 9d65 12c0 179a 9224 6c6a fcbf
00000030: 4e54 6eb0 ca06 0340 4e71 9cd4 0a6e 1040
00000040: d6b4 061d 2355 db3f cbb1 3837 00d7 1ac0
00000050: 4436 645f 8c9b 1cc0 fd6f ed38 0ca6 23c0
00000060: 3c9c 7487 11d3 25c0 258d ba31 dd0f 1dc0
00000070: 51df 7b9c 5387 24c0 6e48 de73 5fb8 1ec0
00000080: d037 f9a6 4be4 e33f e1d6 d580 ec79 f1bf
00000090: 1fbd 3872 3ef4 bf3f 6577 24a8 6b50 f43f
000000a0: dfe6 9eb9 c0c3 1bc0 413a c1a7 e391 23c0
000000b0: d850 ed52 99bc 27c0 e65d db00 5525 29c0
000000c0: 919e 1ad3 ccaa 1fc0 1fae 71ae 1b4c 1fc0
000000d0: a578 5be7 cc8d 13c0 bb96 e566 3704 05c0
000000e0: 1204 0ecd 6c44 f7bf 985a c216 1011 13c0
000000f0: 94af eabd a4f2 f5bf 1688 a86b 1b15 1ec0
00000100: 577d d35a dba2 14c0 c738 fe14 b221 fa3f
00000110: e391 25fe 58f9 f1bf d430 620a 8468 e33f
00000120: 061a a213 7761 1840 3ceb cdcb 72fb f1bf
00000130: 2bc0 5194 348f 16c0 7205 7009 f452 00c0
00000140: 927f fbc2 5f98 0340 c812 b57f 2834 00c0
00000150: d35b 8e02 2150 e2bf 9099 654b e758 1d40
00000160: 4113 4cdc 9195 1440 d73d 5b78 1623 0b40
00000170: d9a0 22a3 7477 dfbf e9c5 44c2 c3f4 d13f
00000180: d18a f775 30b6 00c0 823f 906b eebc d63f
00000190: 3033 c536 e346 cebf 7b9d dc4f 9e26 f9bf
000001a0: 9dd2 1bad 5c5f e0bf caa1 6610 0d8a e53f
000001b0: 48c7 940a dd19 fe3f 1e1a c566 ca6e 0340
000001c0: f9b1 85f1 f22f e13f 9ae2 4d46 2fb0 fabf
000001d0: 3352 e334 eff4 09c0 d106 22fa b4b7 fcbf
000001e0: bc9e f6e5 0d1a f03f 0bb8 4d91 a6bf 00c0
000001f0: c64c 8c9e f11b 1740 e2e0 6d10 d307 d03f
00000200: ddab 86ee e5c6 0740 2f4c a31b a4c4 0340
-17.4184219143042 -11.080835730935132 -2.853201905226077 -2.7721988878792367 -4.599234136719016 -1.7759820393199612 2.378316286437019 4.107463190124987
0.4270713599642709 -6.70996176036392 -7.151902666560606 -9.824311999305786 -10.912243111595778 -7.265492226611319 -10.264309778329023 -7.680051622812341
0.6216181050492597 -1.0922665627126025 0.12482061661352305 1.2696339195312814 -6.941164875339125 -9.78493999704108 -11.868357268780912 -12.572914149072812
-7.916796968936652 -7.824324346245276 -4.888476958234752 -2.627058795815939 -1.4542053232146412 -4.766662936794681 -1.3717391413328857 -7.520612413560249
-5.159039897115995 1.6332264728585402 -1.1233758857352931 0.6065082743457659 6.09518080403223 -1.123888774977515 -5.639849011888184 -2.0405045258818797
2.4494014008523175 -2.025467870438977 -0.5722813653873068 7.336819818569339 5.146064226287138 3.3921327021450725 -0.4916659920804825 0.2805642506746993
-2.0889596191567326 0.3552814531731131 -0.23653831648189216 -1.5719283218002988 -0.5116408711461023 0.673101932557125 1.88131431706684 2.429096987619473
0.5371031491500268 -1.6680138345965703 -3.2445968753693477 -1.7948503275696803 1.0063609106963858 -2.0935794212191516 5.777288892091013 0.2504775677148371
2.972118247494548 2.471016136094043
