estimated_capabilities/progression_model_results_2M_N1000/_estimated_ability_bias_rl_FULL_low_hdi.npy (npy, 528 bytes, 1 tensors)

array f8 [50]
0	0xbff13652f431c1fc	-1.0757627047388487
1	0xbfe618295132bd0f	-0.6904493890669147
2	0x3fd09b300cfdc9cb	0.25947190540969406
3	0x3feb7fae42e3e40c	0.859336023945731
4	0x3fd43c9e5189b5df	0.31619985544861423
5	0xbfd41ec2e36cbb12	-0.3143775196976303
6	0x3feb089e10a60eb8	0.8448019337815458
7	0xbfb8d4facda6a7be	-0.09699981232429786
8	0xbfcb02a698dccb64	-0.21101839508045395
9	0xbfd2bfde585e0376	-0.2929607260667163
10	0xbf93741eef70c7b9	-0.018997653354922515
11	0x3fe80c65fe9e8701	0.7515134785682848
12	0xbfe73ac8e49c38af	-0.7259258713763951
13	0xbfc4fe34c2c0362d	-0.16400775441472729
14	0x3fb32b9dec0fb1c1	0.07488429082122307
15	0x3fd04f1ad60d2b80	0.2548281755777495
16	0x3fec63a422eec43d	0.8871632272986357
17	0x3ff25d5b9725f590	1.1477924255590075
18	0x3fe008b940f481d5	0.5010648983625808
19	0xbfe5b3851e420208	-0.6781640616391664
20	0xbfdbfb7d750b23d9	-0.4372247355464061
21	0x3fc2dbe42ed00c27	0.14733555112624794
22	0x3fda32e68866819c	0.4093567211184792
23	0x3fdb307852d25626	0.4248333748631431
24	0x3fb1f71043178e94	0.07017614019383195
25	0xbfc9c40e3d20720c	-0.20129564270691025
26	0x3fab5a7bb653ef03	0.05342470741922336
27	0xbfbe0b4d7697f698	-0.11735996384956093
28	0xbfcb8a9233417e62	-0.21516635420538238
29	0xbfdfb0ef476216e3	-0.49517423602115523
30	0xbfd4b36795b9d7e2	-0.32344998952555504
31	0x3fcfa0e7170fdba7	0.2470978605849414
32	0x3fcdbf5a9323de17	0.23240215477538648
33	0x3fb749b7563ab711	0.09096856932839283
34	0x3fd1811cb6c208c5	0.27350538108306593
35	0x3fdea89c790fb7b3	0.4790412122955516
36	0x3fce05a86ec7aa22	0.2345476666371989
37	0xbfcfc46e4ec2d0d3	-0.24818209501029873
38	0x3fdacc38b70de39d	0.41871469379798915
39	0x3fde3ff9dede13ae	0.4726547886314688
40	0x3fea7faf5e4054bb	0.828086551746899
41	0x3fde9b7ad51f6460	0.47823973477131254
42	0xbf99b3e930f740be	-0.025100368131291566
43	0xbfe1444d6d8ef9f9	-0.5395877017797935
44	0xbfd055578cc25455	-0.2552088617897586
45	0x3f72c0b05e63e7d4	0.004578293743401535
46	0x3fc9e97b3ebb1828	0.20243778765706222
47	0xbfdd772225d28fbe	-0.46039632505039296
48	0xbfa9c5104003e4d1	-0.05033160001216575
49	0xbfe5b380485c2c01	-0.6781617558748395
