estimated_capabilities/precise/progression_model_results_2M/bias_est.npy (npy, 528 bytes, 1 tensors)

array f8 [50]
000000 e2 94 5f b7 22 78 ff 3f 3d 8f ba ae 7d 97 f1 bf
       1.9668299830457774 -1.099485094579861
000010 e3 0e dd ea 3f 1c f5 bf 78 82 9e fc b1 d3 ed bf
       -1.319396893916683 -0.932091706654389
000020 80 cb 79 35 41 9a dc bf 10 1b ed 46 e7 54 d9 bf
       -0.4469149610733254 -0.39580709387193824
000030 4d 4a 70 c2 65 b7 de bf b1 9d 93 24 58 6f de bf
       -0.47994369495532824 -0.47554591724334744
000040 02 d9 b5 8a 7a 31 de bf a7 52 f2 06 9e dc db bf
       -0.4717699389069737 -0.4353404109799989
000050 58 c3 85 18 00 0b d6 bf 05 04 9f 9c 87 de d6 bf
       -0.344421409557119 -0.3573321370604961
000060 b5 12 1c b0 1e 67 d6 bf 5f 66 95 d5 4b 3f d1 bf
       -0.35004393766602543 -0.26948829515240463
000070 a8 64 11 19 b9 4a c7 bf e4 44 23 1b 12 4a ca bf
       -0.1819678661729871 -0.2053854591854708
000080 7f 9e 5a ba 2e 8e c5 bf 75 43 de 5d 76 cc cb bf
       -0.168401566498904 -0.21717719634446167
000090 0a 92 60 ca 5d 3c a1 bf 3f 6f 71 36 51 4c 77 3f
       -0.03366368384766723 0.005688016163812481
0000a0 2d 9f 67 94 3e 63 7f bf 67 bb c7 41 e7 ba a6 3f
       -0.0076630062598963935 0.04439470937710759
0000b0 c9 c7 6b c5 d8 54 b7 3f 1f 2f 32 c2 33 b7 d4 3f
       0.091138408850184 0.3236817738004322
0000c0 36 3a 19 99 83 ca d1 3f f1 c3 56 10 98 a7 d4 3f
       0.2779854769804929 0.3227291259345853
0000d0 67 75 f9 a3 4a b8 ca 3f dc 1f 1c 83 db 34 d5 3f
       0.20874913221897914 0.3313511638993967
0000e0 c0 9b 73 aa 7b 15 d1 3f e1 ab c7 d1 de 73 c7 3f
       0.2669362225118981 0.18322358363306449
0000f0 ba 32 3a 4c f8 28 c4 3f e5 2e a7 d8 6f d0 ad bf
       0.15750030252492825 -0.05823087234202066
000100 86 a3 e1 12 97 de b7 3f 17 96 f9 60 32 62 b2 3f
       0.09324020586940493 0.07181086413910297
000110 61 41 1b 70 98 4b a9 3f 92 68 45 2d ac 64 9d bf
       0.04940487259375704 -0.028704347861414244
000120 d4 36 fe 86 af 65 d1 3f d8 ac 49 81 fa 6b d9 3f
       0.27183139975464354 0.3972154867721662
000130 2e e2 fb bd 56 c1 d9 3f 67 75 31 f1 7b bc d6 3f
       0.4024254660903662 0.3552541594888993
000140 dd 28 77 6d b4 0f d5 3f b8 70 07 93 c6 68 cf 3f
       0.3290835446356491 0.24538500003007413
000150 94 b9 f3 fc d1 c3 d8 3f a8 c6 5f 73 c4 d8 e1 3f
       0.3869519205317371 0.5577108624840621
000160 ed 9d a4 a5 39 a7 e4 3f 85 b9 60 99 d2 31 e5 3f
       0.6454132304397128 0.6623318668041952
000170 bc 05 0f 4a 7f 0b de 3f 63 c5 5e 4e e6 5a e3 3f
       0.4694517348508176 0.6048461466472584
000180 72 ef 89 46 65 d1 ed 3f 53 ef 3a 33 76 8d f1 3f
       0.9318109872542506 1.0970365525417562
