estimated_capabilities/progression_model_results_2M_subsampled_100/bias_est.npy (npy, 528 bytes, 1 tensors)

array f8 [50]
0	0x40133244eece2bd5	4.799091082891171
1	0x3fe9b41bc113c71c	0.8032358904876875
2	0x3feed5636c160bb9	0.9635483847672425
3	0x3fd0639f5cf4f42f	0.2560804755956409
4	0x3fc02be9c234d997	0.1263401220582636
5	0x3fc30de52fa0c63f	0.14886154962145956
6	0x3feffb938b0dc0b9	0.9994600025074966
7	0x3ff08fbd9b8a7936	1.0350929332558514
8	0x3fe1d6535ebed155	0.5574128008361564
9	0xbfeb0afa7f769a1d	-0.8450901498334279
10	0xbff665db396b5737	-1.3998672717038525
11	0xbfef6eb8445c7e16	-0.9822655997449512
12	0xbfeafcab062aa88c	-0.8433432693903042
13	0xbffc11ca79b2cc18	-1.7543434861988825
14	0xbffbf77f49979767	-1.7479241251653208
15	0xbffbfb795d98d4b5	-1.748895040143265
16	0xbfe4d9231e0a97af	-0.6515060030694623
17	0x3fec83eeb0d17579	0.8911050275307125
18	0x3fdc54eac6a1e006	0.4426829280632777
19	0xbfe1bcf82d0d502a	-0.5543175582811319
20	0xbfb24d4ee531c422	-0.07149212928358442
21	0xbfdef8cfd4ee8063	-0.4839362697039233
22	0xbfc927198facdecf	-0.19650573268312718
23	0xbfcc6e49da080ba1	-0.22211573740068238
24	0xbfd4a3d8acc2005c	-0.32250038977509177
25	0x3f9756cea368f399	0.022792080615761632
26	0x3feb4463f6f0fa62	0.852098448092715
27	0x3fd811e3794ae135	0.3760918316361484
28	0xbf77c2470605e0d1	-0.005800511775639631
29	0xbfde6a9504f522eb	-0.47525525554787745
30	0xbfb255043b1ac74c	-0.07160974925025448
31	0x3fe4e5e05a2b00d6	0.6530610810368909
32	0x3fe0d02206b7e5f1	0.5254068499772854
33	0x3fe9eb7bbbf9bb7b	0.8099955245396439
34	0xbfa4b24716327ab6	-0.04042265077554445
35	0xbfd130751b552d84	-0.2685826079293394
36	0xbfb10485ca426566	-0.06647525966618203
37	0xbff1aa7562948f32	-1.104115853385292
38	0xbfd7608735e9bbfe	-0.36526661171859576
39	0xbfd11ec527855fe3	-0.26750305995437723
40	0x3fc2fa7600062e50	0.14826846123866
41	0xbfe89a13dbaf508d	-0.7688082972258755
42	0xbfdb42f28565ebcf	-0.4259611418453319
43	0xbff077cd66c8dc1d	-1.0292486205123688
44	0xbff0c2c2a4a040ed	-1.0475489073469888
45	0xbfea7594b8567209	-0.826853141817595
46	0xbfeee59fc6cf104d	-0.9655302889809804
47	0xbfe951898cd104b7	-0.7912032842943039
48	0xbfe98bc8870f3d62	-0.7983133924371197
49	0xbfba13061330749a	-0.10185277908790838
