estimated_capabilities/no_navigation/working_caps_predictive_2/bias_est.npy (npy, 656 bytes, 1 tensors)

array f8 [66]
000000 9e 82 fe 04 5a fe d8 bf a0 3a 2d 11 75 f9 d8 3f
       -0.39052439201081224 0.3902256648770308
000010 02 7b 8b 01 4b 0e c6 bf 63 e3 c3 cd 13 95 e4 bf
       -0.17231118750984115 -0.6431979197360359
000020 4b 87 7c 9b fd 05 e1 bf 6c e8 5f 87 35 e4 e2 bf
       -0.5319812809795875 -0.5903575557743017
000030 da c5 1e 41 23 71 c5 bf c9 3e 04 85 f5 ba d3 bf
       -0.16751518897721845 -0.30828607549572645
000040 3b 59 ca e5 1e 7f ce bf 4b 5a d7 8e 40 31 85 3f
       -0.2382544157050662 0.010347847327392709
000050 50 fa b1 be 98 17 d9 bf e1 a7 bf 31 62 52 70 3f
       -0.392065225816542 0.0039848170963327776
000060 d2 72 03 29 57 a6 d8 3f 0d 2e 16 41 7b fa e0 bf
       0.385152616550653 -0.5305763503287736
000070 23 8b f4 b3 45 db dc bf 9d 7c 48 db 85 85 d2 bf
       -0.45088331769709294 -0.2893995896756197
000080 cd b7 16 59 07 28 af bf f4 14 82 81 dd 02 96 bf
       -0.060852269768801294 -0.021495305089520536
000090 3f 15 91 78 64 00 d2 bf 16 6b 4e 5c 5f 20 dd bf
       -0.28127395414442796 -0.45510086073197564
0000a0 33 f6 bb 55 47 58 b3 bf af d1 0d 09 4a 6d b0 3f
       -0.07556577532883395 0.06416762085957005
0000b0 20 5f 88 f8 6f 79 e8 bf eb 09 53 77 8a f5 e4 3f
       -0.7648238996652914 0.6549732523492912
0000c0 5c f8 f2 73 7e 15 94 bf bf 8f 69 2c 80 1d 91 bf
       -0.019613242938014572 -0.016714098654474926
0000d0 1c 3f d5 83 dc 28 dd 3f d5 d9 8b b5 4b d8 d2 bf
       0.45561898111644594 -0.29445164422159326
0000e0 41 32 d3 a4 55 24 95 3f 64 d7 3c 5f f9 0b b3 3f
       0.020646417794340847 0.07440146041048262
0000f0 d1 51 05 18 26 6f c0 bf 40 6e 33 ac 7d b7 e3 3f
       -0.1283919923104251 0.6161487925814484
000100 bf 9d e2 84 29 c7 b8 bf 57 0f c5 9b a0 25 dd bf
       -0.09678897375362448 -0.45542159282580513
000110 d0 cf d8 1a d8 51 d3 bf ff 03 71 14 70 5a c3 bf
       -0.3018703710724795 -0.15119744299047963
000120 39 bf 09 5b 0e 3d ec bf 56 9a 06 d1 71 72 d1 bf
       -0.8824531343543419 -0.2726101437823777
000130 fd 57 85 7f 51 be c8 bf 94 4f 22 9a 23 b7 d5 bf
       -0.1933080551777379 -0.3393029217925172
000140 80 a7 38 a4 f1 43 d8 bf d3 d6 aa 89 33 cd da bf
       -0.37914696728932284 -0.41877449459148613
000150 26 e1 3c 46 6c 22 d8 bf a0 a7 6f 47 03 38 d9 bf
       -0.37710100993310147 -0.39404375053583784
000160 6f a7 9a e7 f2 4d b4 3f ce 01 8a 85 3e 5c b4 bf
       0.07931440500638386 -0.07953253517371836
000170 fd 0f f4 5d 2c 64 d0 bf 53 bd fa 78 8a 97 e0 bf
       -0.25611409354337394 -0.5184986460571203
000180 55 cc bd a3 93 ca cb bf 68 98 a7 a5 82 7d e3 bf
       -0.21711965079484466 -0.6090710864489326
000190 3b 20 e3 fd af f4 cd bf b0 78 eb dc 6a 84 94 bf
       -0.23402976891361668 -0.020036382421374455
0001a0 9c a8 34 27 df 84 d0 bf d1 df 2e cb 36 be d2 bf
       -0.25810984448129104 -0.2928597435197818
0001b0 d0 bf e3 f4 82 c3 ea bf 66 18 9b 27 1c 0f d7 bf
       -0.8363661559105768 -0.3602972399497787
0001c0 8a f6 74 55 29 9b f0 bf 59 96 51 85 9e 3a db bf
       -1.0378812158736843 -0.4254528333607133
0001d0 49 98 37 eb d9 9d d3 bf 9b 8b 6a 0f b8 2b 82 bf
       -0.306509475425973 -0.00887244984671103
0001e0 35 8c 37 cd b3 ea d1 bf be 31 48 cb c1 e3 ef bf
       -0.27995009461136827 -0.9965523691512812
0001f0 d8 27 69 ef 6d 0e ed bf 99 6d 50 e6 c8 8a df bf
       -0.9080114055625428 -0.49284574977510825
000200 a2 b7 33 f4 31 2e dc bf d9 f8 1f a6 a9 62 e3 bf
       -0.4403195271287307 -0.6057937855364585
