estimated_capabilities/working_caps_predictive_5_harder_train8eval10_precise/bias_est.npy (npy, 656 bytes, 1 tensors)

array f8 [66]
000000 a5 13 5c 5e d5 0b fe bf 21 0e 36 fc be 44 fe bf
       -1.8778890310215754 -1.891783700179879
000010 ad ef ae 12 6a 3d 00 c0 09 36 e4 85 83 af 00 c0
       -2.0299874744068434 -2.0857000789899343
000020 ca 63 94 6b 85 58 01 c0 6d d5 bd 68 3a d0 0b c0
       -2.1682232288989995 -3.476673906605973
000030 21 81 a5 5f c9 2a 0c c0 5b 50 49 42 a5 7f 07 c0
       -3.5208919021971643 -2.9373269251464484
000040 4f 51 6e 91 c3 ab 01 c0 f6 f7 33 b9 14 89 f6 bf
       -2.20886911027825 -1.408467029046276
000050 31 12 eb 1f cc a9 ea bf 0f 18 08 41 f1 41 f5 bf
       -0.8332272170451401 -1.3285992183969062
000060 71 0a e0 b5 3b 5c 02 c0 7e 54 d7 17 77 50 15 c0
       -2.295035763644869 -5.328579304235175
000070 70 e8 48 ee 0e 45 0d c0 d0 de 91 f9 53 7a 0a c0
       -3.6587198844909423 -3.3097304818764783
000080 50 39 cb 91 d0 07 fe bf f5 fc 60 95 92 e0 f0 bf
       -1.8769078917572024 -1.0548272929298126
000090 70 11 21 10 20 08 98 3f 88 e0 73 11 4c b0 ef 3f
       0.023468495354124597 0.9902706471321077
0000a0 40 0d 0c 43 13 b3 c9 bf 0f dc 91 3a f1 3a d0 3f
       -0.20077744268210473 0.25359755248740695
0000b0 54 25 60 42 1a 88 de 3f ae a5 8f 03 5b ee cf bf
       0.477057041950123 -0.2494615332973757
0000c0 a2 bb 21 16 b4 49 f0 bf 85 74 47 e9 f7 ec 9f 3f
       -1.0179940094492186 0.031177400220134394
0000d0 1e 1a 8d 53 28 7d fb bf ef e4 3c 7f 6e 4a f5 bf
       -1.7180560363500557 -1.3306717844228009
0000e0 83 81 11 b1 eb b6 fd bf e0 3f 69 45 3c d8 02 c0
       -1.8571583668454827 -2.355583708071194
0000f0 5f 01 a7 a6 b4 1b ed bf bd 65 07 0e 74 2a f5 bf
       -0.9096320395401952 -1.3228645847324139
000100 48 d8 da 0f e3 c4 e9 bf 59 fc 0a fd 38 93 f7 bf
       -0.8052840528168952 -1.4734430202950277
000110 38 c2 86 43 99 c0 02 c0 5f 9e c1 34 ec f7 08 c0
       -2.3440423274517137 -3.1210559960925788
000120 73 ba 9c 8b 57 63 0a c0 b3 b9 3c 2b a4 6b 0a c0
       -3.298506823273152 -3.3025592210680883
000130 59 c0 b3 8d 2c 29 0d c0 3f da c1 ce 52 7c 02 c0
       -3.645104510353161 -2.3107048180493446
000140 16 cf 06 49 46 5a c0 bf c6 31 dc b3 a0 31 ea 3f
       -0.1277549606871779 0.8185580742734195
000150 60 1c a9 2c 81 6a e0 3f 58 ab 07 bf 7b f3 f5 3f
       0.5130010483052381 1.3719441854579681
000160 a6 a3 31 18 c9 de f8 3f 08 14 86 14 43 34 f0 3f
       1.554390997416911 1.0127592851361005
000170 42 3a a3 91 a0 2d e5 3f 6e 48 45 c8 f3 08 d8 3f
       0.661819729278996 0.37554640348128643
000180 b7 01 45 94 1d c9 e3 bf 15 60 1f ca c7 e8 ea bf
       -0.6183002372636598 -0.8409155795770881
000190 9e 7e 05 b4 0f 82 f9 bf 2c b5 5f 79 f1 f6 e8 bf
       -1.5942532569969567 -0.7801444407065552
0001a0 73 4c 00 17 ba 13 f2 bf 38 9a bd 35 b3 86 f5 bf
       -1.129816140983874 -1.3453857516521008
0001b0 26 7e 7a 88 57 39 f0 bf ab df d8 d1 f8 9c f3 bf
       -1.0139994937125123 -1.2258232304720689
0001c0 f0 84 6f 54 ae 7c fa bf c4 ed 4e 84 7a 7f fc bf
       -1.655439691378259 -1.7811227005284858
0001d0 58 03 e4 64 ac 7f fb bf da bb d4 dd e0 33 06 c0
       -1.7186702672044785 -2.7753312426134302
0001e0 41 0d 12 51 82 e9 02 c0 d0 79 82 28 06 0f 00 c0
       -2.3640180905946697 -2.007335964662367
0001f0 61 6d 46 3b 11 74 d1 bf 98 a8 cd 23 9b 59 f4 bf
       -0.2727091864450895 -1.2718764685219295
000200 a6 05 89 6c 34 8f fa bf 1b 21 49 31 f8 0b f8 bf
       -1.6599621047647388 -1.502922241708865
