estimated_capabilities/working_caps_predictive_5_harder_train8eval10_precise/bias_est.npy (npy, 656 bytes, 1 tensors)

array f8 [66]
000000 54 cd ed 74 2f 6f 0a c0 16 21 3c dc 68 6a 07 c0
       -3.3042897353240424 -2.926957817635535
000010 b3 9c d6 8a 20 0e 0a c0 dd 66 41 24 ef aa 09 c0
       -3.2568980070824067 -3.208463938947587
000020 95 71 11 24 8c 45 0b c0 0e 0e db 30 9b 36 15 c0
       -3.408958703787173 -5.303326381082583
000030 0f 1c 20 77 45 b2 13 c0 58 13 ff 3b b9 3b 0b c0
       -4.924093114218535 -3.4041619002550014
000040 41 56 2c 16 47 cf 02 c0 07 9f 8a 84 9f ae b1 bf
       -2.3512098057060773 -0.0690707872951145
000050 79 42 76 6a 7a eb e6 3f 36 46 5e 79 af d2 f6 bf
       0.7162448958716389 -1.4264368763873683
000060 b0 34 b5 f7 4e 90 10 c0 8c df 0d 87 e5 a0 23 c0
       -4.1409262375211 -9.814251156276235
000070 1b 03 ac ba 96 69 21 c0 19 fb 4e 39 23 7d 1e c0
       -8.7062280974365 -7.6222046808677755
000080 47 8f c7 4f 0d 83 1d c0 45 47 10 80 21 0f 1d c0
       -7.3779804673720895 -7.264776230805926
000090 7a 06 b2 e6 8a 95 19 c0 15 e5 3a 51 b6 6c 0b c0
       -6.396037678352167 -3.428082117662266
0000a0 ff 72 df a4 58 c5 13 c0 3c 84 d6 cd 4f 59 f3 bf
       -4.942720962656266 -1.2093046227021338
0000b0 aa de 73 d7 c2 ac d4 bf 93 1e c0 11 f2 9e ee bf
       -0.32304450073523105 -0.9569025370301055
0000c0 52 57 5f a1 24 98 fb bf 5f ca c7 aa 26 e9 bf 3f
       -1.7246443084345242 0.1246513525909818
0000d0 39 ce 72 2e 15 03 0c c0 5a 1a ec c4 07 39 02 c0
       -3.501505244139278 -2.2778468498757265
0000e0 82 fa 8b 73 55 e5 04 c0 35 10 ef 29 75 83 08 c0
       -2.6119793917744696 -3.0641883159715015
0000f0 0b 79 c6 31 49 d9 e8 bf 03 b1 b1 8c cc fd f6 bf
       -0.776524159638741 -1.4369626518119396
000100 0b 10 fc 28 e4 55 f8 bf dd e0 d1 80 9d a1 04 c0
       -1.5209695435487471 -2.5789136947679325
000110 b4 13 c7 c8 30 3f 0d c0 d3 7b 8e a7 4c fa 10 c0
       -3.6558547673943966 -4.244433038779749
000120 6a 00 ad b2 7c 53 12 c0 a7 5f 0b 91 d8 b7 11 c0
       -4.5815303724376495 -4.429537073439781
000130 5d 56 42 1b 46 da 14 c0 bf 7e b1 07 a0 a3 08 c0
       -5.213158060001288 -3.0798950768511015
000140 9d 5a 83 51 7f 21 e3 3f 70 5c 3e 99 39 3c f4 3f
       0.5978390304615747 1.264703367812924
000150 26 fa a0 c0 99 24 eb 3f 3a 8f 33 21 a7 fe fb 3f
       0.8482178461343366 1.7496711060457089
000160 c8 9c dc fe 6f 19 f9 3f 31 79 86 cd fe 72 e7 3f
       1.5687103229081902 0.732787515083862
000170 6c d1 a0 d2 0d 11 df 3f ea 74 38 30 ce 56 ce 3f
       0.48541589326057166 0.23702409128683338
000180 59 01 b6 79 63 5e fa bf 61 e3 10 3c 44 fc f3 bf
       -1.6480440859159755 -1.2490885111166892
000190 46 f4 83 9b 83 6e 05 c0 f6 be b8 9d 56 a1 e6 bf
       -2.6789619588512634 -0.7071946220875975
0001a0 f0 61 c5 01 b9 7d f3 bf 36 3e 2b d5 bf 42 f7 bf
       -1.2181940144711199 -1.4537962271605358
0001b0 46 14 a4 28 b4 c3 f1 bf ae 54 95 9c 6a 37 f5 bf
       -1.1102792346512316 -1.3260294071708745
0001c0 34 1d 06 ba 36 fc ff bf fb 66 20 c6 cd 3d 04 c0
       -1.999075628906053 -2.530177638877715
0001d0 c4 9d 92 ca 66 18 03 c0 4e 0f 68 c1 89 df 10 c0
       -2.3869148088449226 -4.218298933006578
0001e0 28 68 34 1e e7 16 08 c0 60 a1 04 21 cf 51 00 c0
       -3.011183010076838 -2.0399458484209134
0001f0 d9 87 0d fd 5c 72 d9 bf 5b 1e bb 3e 13 cd fa bf
       -0.39760517799561296 -1.6750671816279439
000200 88 af 77 b0 42 72 ff bf a7 6a 5d 12 5f ca f7 bf
       -1.965395631147631 -1.4869070737246746
