estimated_capabilities/no_navigation/progression_model_results_2M/bias_est.npy (npy, 528 bytes, 1 tensors)

array f8 [50]
00000000: c2a5 f5bd 1447 c3bf 54c2 8815 e526 c0bf
00000010: 2da9 019e 9782 b33f 5381 45eb 3827 ae3f
00000020: f0b4 f00e 668a c53f 6e67 73f4 0047 c6bf
00000030: bd19 99ad 7fbc d23f 9c16 7ba3 c918 d53f
00000040: ee93 3e78 a30a ca3f 1b92 4dbf b61a 533f
00000050: 5604 d462 c683 ccbf a5ad a058 22e6 ba3f
00000060: 71c2 cd59 3e12 c0bf fecd 4909 1af1 b6bf
00000070: c3ae e694 4355 babf c901 879a 8492 afbf
00000080: 3b79 3dac cc93 bb3f 0cb7 d216 aff8 d73f
00000090: 6db3 bbe6 b8d3 bd3f 9ec9 9238 8534 9bbf
000000a0: c61d 3511 94ca ae3f 282a 5aac 3aac 87bf
000000b0: d398 cd09 2618 c43f fcc4 f90d c55d b33f
000000c0: 30e1 d515 dc89 b1bf 2d1a 9f99 f852 bb3f
000000d0: 9e49 2c15 cf5a cb3f 28ea a909 17b9 3cbf
000000e0: 7628 2c56 72d4 c93f 136b 62ee a800 a13f
000000f0: b4d9 e355 baed ad3f 61f9 ffe8 1cb6 cd3f
00000100: e537 0d47 19e2 b13f 81f5 3f1a cd69 bf3f
00000110: b4ff eb72 2dce c53f e3d7 7c4e d8d1 92bf
00000120: 4e14 6102 16ba d23f 81da e53a 6b36 713f
00000130: dee0 4969 c01d c43f 3873 471c e264 d03f
00000140: 2ffd 9151 c0ae b83f ed7c 5522 929d aabf
00000150: 11c6 be65 fae4 92bf de62 81e6 536b ccbf
00000160: 8b69 5b61 0e3d c6bf e457 4fdb 42fb c3bf
00000170: 3474 3c76 d4ff a83f 64db d981 2311 a13f
00000180: 5ef6 2cbc 1c78 81bf 4469 3c9e 1a98 b1bf
-0.1506067206894795 -0.1261869769237075 0.07621142966823831 0.05889299270598038 0.1682860920858853 -0.1740418618781478 0.2927550502103278 0.32963791813777177
0.2034496628886297 0.001166037048471519 -0.22277145219416877 0.10507406867753007 -0.12555674920033114 -0.0896164200474274 -0.10286352525025237 -0.0616647184974713
0.10772399144250226 0.3745534632570162 0.11651187546858717 -0.02656753690525592 0.06013930044224085 -0.011558969864627747 0.15698695639293322 0.07564956275179563
-0.068509822207379 0.10673478842282043 0.21370876821363266 -0.0004382783169273618 0.20179585654870252 0.03320815954176317 0.058454344734787084 0.23212014557789032
0.06985624298724209 0.12270814791550856 0.17035453902644593 -0.01837861994791713 0.2926077864870579 0.004202288501224617 0.15715794697803792 0.2561574245608429
0.09641649238073023 -0.05198342007747123 -0.01845160718921163 -0.22202538256785592 -0.17373828653110154 -0.15610538204663194 0.048826827462314176 0.033333882904961226
-0.00852987717882597 -0.06872717250044952
