estimated_capabilities/no_navigation/progression_model_results_2M/bias_est.npy (npy, 528 bytes, 1 tensors)

array f8 [50]
00000000: 203d b92d d9a7 c7bf 194a 797e fe7c b73f
00000010: 1071 e038 1b47 b2bf a8f6 14d8 55fd 98bf
00000020: cdd8 c9d9 01b0 c5bf 7204 16f9 a60d c83f
00000030: 5a17 70c9 28d4 d3bf bf27 1796 42b0 d4bf
00000040: c613 84a8 513e d2bf 4f60 fd29 add0 b63f
00000050: a695 e480 3397 cf3f 3bbb c64e d540 c5bf
00000060: 66d4 701e 75bb c73f e21c 547c a1e5 a63f
00000070: fbf4 e225 39c9 c43f 1010 9571 a138 a23f
00000080: ba35 86b8 f57a c3bf 95e8 3612 557f ddbf
00000090: 02bf 40d3 7318 aabf 7ad1 4b2a baeb b13f
000000a0: c6bb 448d 9b29 a7bf 7eda 90f1 7618 8fbf
000000b0: f739 22c4 70b9 c2bf cc34 0121 54d7 b2bf
000000c0: 31d3 85a2 4727 c43f 3b55 2aff 8918 c1bf
000000d0: b63a dbeb 3578 d3bf 907c 7459 8b10 71bf
000000e0: 0def 20e5 917b cebf 4f34 76f3 977b 993f
000000f0: 11b9 15e4 e08a acbf 2b20 0c52 c1fb d0bf
00000100: 782e 00ef a5b7 b0bf d6d3 c97c 9070 bfbf
00000110: 2617 e878 c37f c0bf 59c3 89ed 71b3 b23f
00000120: cf2a d1f6 da18 d9bf a4e4 6061 8753 353f
00000130: 38fd f37b 6b65 c5bf a165 e3ae 2394 d7bf
00000140: 96bb d42a a180 babf 82a0 796b d7ff b23f
00000150: f787 d930 2338 b03f 951a 5118 67c2 ca3f
00000160: fd16 f8f4 9310 c43f edda 7800 5426 c53f
00000170: 8567 ffca 091a c0bf b301 1ec2 dcea 8c3f
00000180: 8d82 8d0e bcc3 943f 3057 d17e e62d c63f
-0.1848098252544128 0.09175100887049616 -0.07139749659149097 -0.024403897584525908 -0.16943381437494623 0.18791663324740032 -0.30982417747178703 -0.32325806290884523
-0.28505364853509396 0.08912164950504685 0.24680179399107977 -0.16604105326174498 0.18540824877132706 0.04472069399531066 0.16239084577492932 0.03558830749037167
-0.15218993673299314 -0.460896747386536 -0.05096780732890062 0.07000316174145907 -0.04523931598156809 -0.015183381316189012 -0.1462841947254245 -0.07359815412310694
0.15744872508698785 -0.13356137236829987 -0.3042120745930491 -0.0041661685311559365 -0.23814605415270088 0.0248855345103503 -0.05574705871809916 -0.2653659154170806
-0.06530224881151436 -0.1228113464984085 -0.1288990345348619 0.07305061387320445 -0.3921420488665434 0.0003254132765309703 -0.16715758850475892 -0.36841671065266196
-0.10352523132017519 0.07421633123306218 0.06335658972378143 0.20905770003647164 0.15675591908819078 0.16523218176890656 -0.12579462444301384 0.014119839357363917
0.020277918232184212 0.17327576820633217
