estimated_capabilities/working_caps_predictive_7_harder_train15eval15_precise/bias_est.npy (npy, 528 bytes, 1 tensors)

array f8 [50]
0	0xbff5a32d4a4e454c	-1.3523381140297088
1	0x400d71473a6bc7e6	3.68031163827344
2	0x4010c0f1c7327c4f	4.188422310310741
3	0x4022754ffe68f913	9.229125929178315
4	0x4019f648e7be7300	6.490512486456964
5	0x4028a37a90c33800	12.31929447539369
6	0x4020abbf2dbc3f86	8.335442952374944
7	0xc0102f03766d683e	-4.045911646297155
8	0xbfe016c419d497d6	-0.502779055070955
9	0x401997015dcb3b11	6.397466149834842
10	0x4015f39bd8d8bdb1	5.487899196842975
11	0x4010a64ec5233be6	4.162409858966361
12	0x3ff12c1f0fbd95c2	1.0732718100419878
13	0x3ff6c8226830e678	1.4238609380685414
14	0xc001d10cf774a5b5	-2.2270755131218842
15	0xc015ae7189ddba39	-5.420354990156334
16	0xc01933301200c921	-6.299988061235383
17	0xc01c2aaafd74bf2f	-7.041667900324497
18	0xc0210b37e9079241	-8.521910936521751
19	0x3fe264ad630070cc	0.5747897084834448
20	0x400f6d89315f9254	3.928484330872644
21	0x401039747cc5d82b	4.056108426642861
22	0xbff76eaf37d63513	-1.4645225697634643
23	0x3ff4ace3543578f8	1.292208985272337
24	0xc0014e25da04e196	-2.1631581337680457
25	0xbfe6afc6003ff018	-0.7089567189100334
26	0xc0074f1caabc2862	-2.9136288965865313
27	0xc015fe22440a1011	-5.498177588571722
28	0xc00c88c1d6ef7cef	-3.5667759696803993
29	0xc010222c3b97bd35	-4.033371859680575
30	0xc002aa0b13484ae5	-2.3330289369999826
31	0xc010321a2d4cf51d	-4.0489279821606745
32	0xbfe17ea1e75261a2	-0.5467080610279036
33	0xc00930ecd674467f	-3.1488892320856503
34	0xc007b85bb5f13f67	-2.965018674301905
35	0xc00615ed325dda98	-2.760706323136514
36	0xc00d634024cafc09	-3.6734621881910283
37	0xc00e83c9300c6918	-3.8143485788142577
38	0xc01188dd530fd075	-4.383656785812595
39	0xc00e4b8a1d6b2941	-3.7868845270469653
40	0xc010fa2598e1cda7	-4.244284046918813
41	0xc00d73c18df46716	-3.681521519681051
42	0xc0023731f2031ad7	-2.276950731963875
43	0xc00572ae0b735cd8	-2.6809960264759916
44	0xc00735007b4dd916	-2.900879824937088
45	0xc00ef9a7f44dec77	-3.8719023786812232
46	0xbffeb6937479cf95	-1.9195742177807678
47	0xc0043d2b86d266a3	-2.5298681767424838
48	0xc0001f6a8b83f6c9	-2.015339937176439
49	0xbffb9c687f68bdf9	-1.725685594264972
