estimated_capabilities/working_caps_predictive_7_harder_train15eval15_precise/bias_est.npy (npy, 528 bytes, 1 tensors)

array f8 [50]
00000000: f269 c5c1 6b32 9abf c390 8f78 3548 973f
00000010: 618d 207a efab b63f 4d27 e654 765a b23f
00000020: 8cd6 c06a b4a1 b73f 3bf5 4f61 5acf c63f
00000030: a4da ac2c 1202 c83f faf5 9602 01cf c93f
00000040: e30d f6a5 d8c2 c33f 6422 63e9 7663 ca3f
00000050: 2313 68f9 2141 ce3f edc8 c1b7 eda8 d03f
00000060: 8288 31db 0e32 d43f 8de1 b989 6c3b d43f
00000070: 1e5b c719 ddd1 cf3f 0013 8060 74a9 c83f
00000080: beba 471b 6f1f b23f 873e c2ce 5bf5 823f
00000090: bbf0 e338 a408 b73f 86d4 fd18 3fa4 b23f
000000a0: b76a 09f6 a619 bd3f a380 b4e7 d7fa ba3f
000000b0: b8ef fdfb 6c33 ae3f 4542 f41b ecfd c63f
000000c0: 701a f1fb 79d6 c13f 07d8 4756 43fc d43f
000000d0: abc4 cd41 2df9 d43f 202b 4b9c 1667 d83f
000000e0: b42b ea62 e5b3 dc3f 7381 5c38 ad0f dd3f
000000f0: 4f08 6fa7 7d0f d93f 6faf c81e f5c1 c43f
00000100: 4677 0c86 76a0 b3bf f172 b679 6d37 b9bf
00000110: 2b2c 75c9 53c3 b4bf ff9b 4d53 4c62 c23f
00000120: 6b5a 3827 f950 c13f c6f7 46e9 bedc bc3f
00000130: 96f4 11b4 6cdb 9a3f 624f 7c85 c108 d6bf
00000140: bfd9 3408 d6f4 e2bf 05d4 68d1 04c1 e7bf
00000150: b4a6 ad1e 7c2f e4bf eec2 35de 1839 eebf
00000160: fefa e261 567d eabf f71e 9fd1 7566 ebbf
00000170: fc1d c1f7 a210 efbf d964 8529 a5d6 f0bf
00000180: 6ea1 07e8 6129 f0bf 54a3 0b80 e11a eebf
-0.02558296556649426 0.022736392482230593 0.08856102687473345 0.07169284413080597 0.0923111687305555 0.17820291282252207 0.18756320172697827 0.2016297590870833
0.15438373664447544 0.20616041560994625 0.2363626926236516 0.26031058259026346 0.3155552998124521 0.31612695169271704 0.24859203108527422 0.19267134391716212
0.07079214492817251 0.009257046935345471 0.08997560872006975 0.07281870231766349 0.11367267138249813 0.10539006621229645 0.058986097107634305 0.17962409367511803
0.13935780336233305 0.32789691377490765 0.3277085440268574 0.38129201186227313 0.44847998294488467 0.4540818262485324 0.3915704856009414 0.16216911318894797
-0.07666722080872743 -0.09850200864316229 -0.08110545795823103 0.1436248213533133 0.13528360762639421 0.11274331279034219 0.026227663508042363 -0.3442844203539065
-0.5923872146875552 -0.7423118677166946 -0.6307964896379503 -0.944469865802686 -0.827799979386185 -0.8562573522731033 -0.9707808340980928 -1.0524036046902465
-1.0101031364120803 -0.9407813549888524
